datas/models/sunflower.onnx (onnx, 302121 bytes, 16 tensors)

fc.weight f4 [2, 256]
0	0xbcfb2ffa	-0.030662525
1	0x3d0051ea	0.03132812
2	0xbdc36baf	-0.095420234
3	0xbd70e06f	-0.058807787
4	0xbdb95da1	-0.090510614
5	0xbd9ecb7e	-0.07753657
6	0xbd717516	-0.058949552
7	0xbd05419e	-0.03253328
8	0xbc0e2b2c	-0.008677285
9	0xbc80699f	-0.015675364
10	0xbcfbe1ba	-0.030747283
11	0x3d7374e6	0.059437655
12	0x3c927c2d	0.017881477
13	0x3da45b5f	0.0802524
14	0xbd1afd66	-0.037839316
15	0xbcaa6921	-0.020802082
16	0x3d6ec9e8	0.05829802
17	0x3d4291b6	0.047502242
18	0x3b1d5fe1	0.0024013447
19	0x3d0785b6	0.0330865
20	0xbcb90819	-0.02258687
21	0x3dace33b	0.08441778
22	0x3ccbe650	0.024890095
23	0x3d192c37	0.037395682
24	0x3dbd9bdc	0.092582434
25	0x3d2da2f3	0.04239173
26	0x3d141b76	0.036159
27	0xbc43619b	-0.011925126
28	0x3b5365f8	0.0032256823
29	0xbd25d827	-0.040489342
30	0x3d0ca2e4	0.034335032
31	0x3d95ef2e	0.073210105
32	0x3cfd6263	0.030930704
33	0x39a7f42e	0.0003203465
34	0x3de46ea8	0.111539185
35	0x3dde0900	0.1084156
36	0xbcf22d7b	-0.029562702
37	0xbd3c106f	-0.04591411
38	0x3d11e6c3	0.035620462
39	0x3d2479f2	0.04015536
40	0x3c02a538	0.0079739615
41	0xbd43c013	-0.047790598
42	0x3d9661a2	0.07342841
43	0x3dab5bf7	0.0836715
44	0xbc8a6029	-0.016891556
45	0xbc1f3414	-0.009717006
46	0x3cbd70ef	0.02312514
47	0xbd5eab79	-0.054362748
48	0x3cafe911	0.02147344
49	0x3bef07a3	0.0072946115
50	0x3d968390	0.07349312
51	0xbaf18d37	-0.0018428926
52	0x3dc4fde0	0.09618735
53	0x3dca27f3	0.09870901
54	0x3d38a736	0.04508134
55	0x3d9bef43	0.07613995
56	0x3d739e31	0.059477035
57	0x3b4e4d3e	0.0031479145
58	0x3dc09b90	0.09404671
59	0x3dca5f81	0.09881497
60	0xbc7257a3	-0.014791402
61	0x3c7c1d39	0.015387827
62	0xbd7f753f	-0.062367674
63	0x3c1f590c	0.00972582
64	0x3d98cd4d	0.07461033
65	0x3dba47dd	0.09095738
66	0xbd7c41a4	-0.061586037
67	0xbd0bb3a5	-0.03410687
68	0xbc0f6f06	-0.008754497
69	0xbd403789	-0.046927962
70	0x3d288a5b	0.04114757
71	0x3bc38f97	0.005968045
72	0x3d8be71e	0.068311915
73	0x3db166ec	0.08662209
74	0xbc38f9e4	-0.011290047
75	0x3d1002fe	0.035159104
76	0xbd6941f1	-0.056947652
77	0xbda1336d	-0.07871137
78	0xbd3dcca1	-0.046337727
79	0x3a87aa3d	0.0010350418
80	0xbc5b2ee8	-0.013377883
81	0x3cd047bd	0.025424832
82	0xbd4f4cfe	-0.050610535
83	0x3aae0d27	0.0013279066
84	0xbd27bed9	-0.04095349
85	0x3c943ff1	0.018096896
86	0x3d940574	0.072276026
87	0xba9e0f07	-0.0012058922
88	0x3d16d78e	0.036826663
89	0xbdcc0961	-0.099627264
90	0xbaf906cb	-0.0018999217
91	0xbd9e9513	-0.077432774
92	0xbd6513f7	-0.055927243
93	0xbdd246ef	-0.10267436
94	0xbcbaed01	-0.02281809
95	0xbde05646	-0.10953955
96	0x3d6bc542	0.057561167
97	0x3abebd27	0.0014552221
98	0xbc91ebf5	-0.017812708
99	0xbcb99e12	-0.022658382
100	0x3d58b25b	0.052904468
101	0xbcc64452	-0.0242025
102	0x3c825442	0.015909318
103	0x3d757856	0.059929214
104	0xbae96d24	-0.0017809016
105	0x3c23f980	0.010008216
106	0xbd3589c0	-0.04432082
107	0xbd7732fa	-0.06035135
108	0xbd15f8a8	-0.03661409
109	0x3c355fa4	0.011070166
110	0x3d347812	0.04405982
111	0xbd6eb90d	-0.058281947
112	0xbce097fd	-0.027416224
113	0x3d4c0206	0.049806617
114	0xbdc1cedd	-0.09463284
115	0xbd8c6db0	-0.06856859
116	0xbd365ad0	-0.0445202
117	0xbdc6e9bf	-0.09712552
118	0xbd4d27cf	-0.050086793
119	0xbe047b14	-0.12937576
120	0x3ca1f5e5	0.019770572
121	0xbd0489b7	-0.032357898
122	0x3d1060d4	0.035248592
123	0xbd28097a	-0.041024663
124	0xbd476ca0	-0.048687577
125	0xbc9eba60	-0.01937598
126	0x3d55e685	0.052221794
127	0x3d39707d	0.045273293
128	0x3d9ad20d	0.07559595
129	0xbc0ed36a	-0.008717397
130	0xbcb7bb3d	-0.02242815
131	0xbcdc7ab2	-0.026913974
132	0xbd4411b1	-0.047868434
133	0x3d118924	0.035531178
134	0x3db8be8f	0.09020721
135	0x3ddf4816	0.10902421
136	0x3d90b4e9	0.07065756
137	0xbc5837bb	-0.013196881
138	0x3daed301	0.085363396
139	0xbd0a1df2	-0.033719964
140	0x3de5e7a6	0.11225824
141	0x3dd1c32c	0.10242304
142	0xbcdc61f9	-0.026902186
143	0x3da39ac1	0.07988501
144	0xbce3022f	-0.027711002
145	0x3c921e60	0.01783675
146	0x3cbe25ce	0.023211386
147	0xbc9106a1	-0.017703356
148	0x3b342db2	0.0027493057
149	0x3c87d865	0.016582677
150	0xbd919061	-0.07107616
151	0xbd85e614	-0.065380245
152	0xbcafd6e8	-0.02146478
153	0x3d5f17b4	0.054465964
154	0x3ce2a4b0	0.02766642
155	0x3db0d00b	0.08633431
156	0x3cf89277	0.030343277
157	0x3d5efc76	0.054439984
158	0x3db8af3d	0.09017799
159	0x3d9ae2d9	0.07562799
160	0x3d740ad1	0.059580628
161	0x3daa62d0	0.08319628
162	0x3db24da0	0.08706212
163	0x3da77a39	0.08177609
164	0x3da42b74	0.080161005
165	0x3d3fbc15	0.04681023
166	0x3d91b83b	0.07115217
167	0xbccf828f	-0.02533081
168	0xbdd6b018	-0.10482806
169	0xbdbd87c7	-0.09254413
170	0xbc4ebe62	-0.012618633
171	0xbcd3e1e4	-0.025864549
172	0x3d2c467a	0.0420594
173	0xbbea7b06	-0.007155779
174	0xbd531310	-0.05153185
175	0x3b39bd31	0.0028341527
176	0x3d9eeb61	0.07759739
177	0x3c360b0f	0.011111035
178	0x3db0bfd6	0.0863034
179	0x3dd8b365	0.10581092
180	0xbc1995b4	-0.009374071
181	0x3d8e9102	0.06961252
182	0xbc78283c	-0.015146311
183	0x3d941477	0.07230466
184	0xbdaa3089	-0.083100386
185	0x3aeba780	0.0017978996
186	0xbe0d0759	-0.13772334
187	0xbd9f2121	-0.07769991
188	0x3c9fca87	0.019505752
189	0xbc68abdc	-0.014201131
190	0x3d968bdc	0.07350895
191	0x3de477a9	0.11155636
192	0xbd75eaa7	-0.060038235
193	0x3d5d80a4	0.05407776
194	0xbd559a82	-0.052149303
195	0x3b9fe431	0.0048794975
196	0x3d153a62	0.03643263
197	0x3d9b6e1b	0.0758936
198	0xbd4c5cb6	-0.049893104
199	0xbd2b4e13	-0.041822504
200	0x3d234eb0	0.039869964
201	0xb98ebe44	-0.0002722611
202	0x3deb14ba	0.11478563
203	0x3df41981	0.11918927
204	0x3d703e5e	0.058653228
205	0x3d36b592	0.044606753
206	0xbced90f9	-0.028999792
207	0x3bcb36e4	0.006201612
208	0xbd8d7ad2	-0.06908192
209	0xbdf96f58	-0.1217944
210	0xbe0a8c7c	-0.13530153
211	0xbdac3150	-0.08407843
212	0x3c5aa4df	0.013344972
213	0xbc3ddf60	-0.011588901
214	0x3c010fd6	0.007877311
215	0x3dd970b1	0.10617197
216	0xbc406288	-0.011742242
217	0xbda7cfd9	-0.08193941
218	0xbda7b740	-0.08189249
219	0xbd6b091e	-0.05738174
220	0xbce98ad6	-0.028508585
221	0xba6104e3	-0.0008583797
222	0x3c1cfb5c	0.009581413
223	0xbd11a7b4	-0.035560325
224	0x3db17c58	0.08666295
225	0xbc29640e	-0.010338796
226	0xbaacab88	-0.0013173679
227	0x3da5045f	0.08057474
228	0xbcfd93f8	-0.030954346
229	0x3d5e43fc	0.054264054
230	0xbd922f96	-0.071379825
231	0xbd5aa1ef	-0.05337709
232	0xbd284814	-0.041084364
233	0xbd4da33f	-0.05020451
234	0x3dfdfec8	0.12402111
235	0x3d4e4baf	0.050365146
236	0xbd000a22	-0.031259663
237	0x3d3a8783	0.04553939
238	0x3cd3567b	0.025798073
239	0x3d727b5e	0.059199683
240	0xbd6fe059	-0.058563564
241	0xbc13dc80	-0.009024739
242	0x3ce7c847	0.028293742
243	0x3d80e78b	0.06294163
244	0x3dba76bf	0.0910468
245	0x3ce40d20	0.02783829
246	0x3dad80e6	0.08471851
247	0xbbf6556b	-0.007517507
248	0x3c695a12	0.014242666
249	0xbd9a8ad9	-0.07546014
250	0x3c656e37	0.014003328
251	0xbd5a5bee	-0.053310327
252	0x3b1633ae	0.0022918987
253	0xbd0ad6b4	-0.033896163
254	0xbda7fbc3	-0.082023166
255	0xbda78cd7	-0.0818116

fc.bias f4 [2]
0	0x3ca20640	0.01977837
1	0x3d78a351	0.060702626

onnx::Conv_80 f4 [16, 3, 7, 7]
0	0x3da36759	0.079786964
1	0xbd557824	-0.05211653
2	0x3da5ea35	0.08101312
3	0x3e649721	0.22323276
4	0xbbde6df4	-0.00678801
5	0x3e7ec7ba	0.24880877
6	0x3b57cbbd	0.0032927834
7	0xbd023e86	-0.03179791
8	0x3c9fc0be	0.019501086
9	0x3e9b5486	0.30337924
10	0x3ea19014	0.31555235
11	0x3db95cb8	0.09050888
12	0x3cce738f	0.025201587
13	0x3e384ccc	0.17998046
14	0xbd750141	-0.05981565
15	0x3e4b8fad	0.19879027
16	0x3e325659	0.17415752
17	0xbd99ac23	-0.075035356
18	0x3e8457da	0.25848275
19	0x3e69eba4	0.22843796
20	0x3e7ffccd	0.2499878
21	0x3e373801	0.17892458
22	0x3db82a39	0.08992428
23	0x3d8d24b0	0.06891763
24	0xbcae6866	-0.021290015
25	0xbd980296	-0.07422368
26	0x3d56f008	0.052475005
27	0x3e635d24	0.22203499
28	0xbc8d048d	-0.017214084
29	0xbe57ef3f	-0.21087359
30	0x3cfb92cc	0.030709647
31	0xbe4e37c7	-0.20138465
32	0x3d7fd189	0.062455688
33	0x3dbd2a35	0.09236566
34	0x3e2c58ee	0.16830799
35	0xbe415c8f	-0.18882965
36	0xbdf3eb0b	-0.11910065
37	0x3d26ca9b	0.040720563
38	0xbe8888c9	-0.2666686
39	0xbe4c2a7f	-0.19938086
40	0xbe477b72	-0.19480684
41	0x3d9d701e	0.076874
42	0xbe369146	-0.17828855
43	0x399c3c27	0.00029799456
44	0xbeb90a8f	-0.36140868
45	0xbe92b4f7	-0.2865369
46	0xbe93c25a	-0.28859216
47	0xbe87cb58	-0.26522326
48	0xbd357bc2	-0.044307478
49	0x3e32ed22	0.17473271
50	0xbc527b96	-0.012846848
51	0xbe2def79	-0.16985883
52	0x3cbaa33c	0.022782914
53	0xbe126fe1	-0.14300491
54	0xbd9a3ebc	-0.07531497
55	0xbe21130c	-0.15729922
56	0xbdd35423	-0.10318782
57	0x3d0f1b96	0.034938417
58	0x3e5005fc	0.20314783
59	0xbe0b965f	-0.13631581
60	0x3e1c7fd6	0.1528314
61	0xbd982df3	-0.07430639
62	0x3e97a0ce	0.29614872
63	0xbc9a41d9	-0.018830227
64	0x3c855a95	0.016278544
65	0xbdf29a02	-0.11845781
66	0x3d9f6226	0.07782392
67	0xbdfa6714	-0.12226692
68	0xbe079e08	-0.13243878
69	0x3e426635	0.18984301
70	0xbce0444d	-0.027376318
71	0xbe0d667a	-0.13808623
72	0x3d9e074f	0.07716238
73	0xbd1efb4d	-0.038813878
74	0xbdbad481	-0.09122563
75	0x3dbb3bd9	0.091422744
76	0xbdb1ec99	-0.086877055
77	0x3d29ecda	0.041485645
78	0x3d8037bf	0.06260633
79	0xbdb4445f	-0.08802103
80	0x3e72bb00	0.23704147
81	0x3e8d5e5a	0.27611047
82	0x3b37d357	0.0028049552
83	0x3e31d690	0.17367005
84	0x3dfa9b73	0.12236681
85	0xbd16e609	-0.036840472
86	0xbb297114	-0.0025854753
87	0x3c92c10c	0.017914318
88	0xbd9213f4	-0.07132712
89	0xbcabe898	-0.020984933
90	0xbd791b31	-0.060816947
91	0xbd42e4d5	-0.047581512
92	0x3d1917a0	0.037376046
93	0xbd405be9	-0.046962652
94	0x3d9119d3	0.07085004
95	0x3e14e8d2	0.14541939
96	0x3e3fd3f5	0.18733199
97	0x3e56ee74	0.209894
98	0xbe1109ad	-0.14163847
99	0xbc41b279	-0.011822336
100	0xbd55c778	-0.05219218
101	0x3dece4d9	0.11567087
102	0xbb5fccba	-0.0034149126
103	0xbddc5dec	-0.10760102
104	0x3e275121	0.16339542
105	0xbdacf18e	-0.084445104
106	0x3c398232	0.011322545
107	0xbdad9872	-0.08476342
108	0x3d866d09	0.065637656
109	0x3d510212	0.051027365
110	0x3d185840	0.037193537
111	0xbd49ac7d	-0.049236763
112	0xbe2eacd4	-0.17058116
113	0xbd9d85b2	-0.07691516
114	0xbe4f3ed2	-0.20238808
115	0xbe2933d6	-0.1652368
116	0x3dd42225	0.10358075
117	0x3e2b7529	0.16743912
118	0x3afc6cf9	0.0019258551
119	0xbe0e5965	-0.13901289
120	0xbded9213	-0.11600127
121	0xbe3a70bb	-0.18207066
122	0xbd3fab26	-0.04679408
123	0xbda35b40	-0.07976389
124	0xbd9e899e	-0.07741092
125	0x3e62a0aa	0.22131601
126	0xbdb3d6ce	-0.08781205
127	0xbc73a640	-0.01487118
128	0xbd78b2c3	-0.060717355
129	0xbc704cf6	-0.014666786
130	0x3cd75af7	0.026288493
131	0x3df1b533	0.11802139
132	0x3e5d4b58	0.21610773
133	0x3dd24f98	0.102690876
134	0xbe8028c3	-0.250311
135	0xbe90f5cf	-0.28312537
136	0x3d83ed38	0.0644173
137	0xbe049b3d	-0.12949844
138	0xbe17bd27	-0.1481825
139	0x3d3fc64e	0.046819977
140	0x3c715fb7	0.014732293
141	0x3da9eb7b	0.082968675
142	0xbce7b106	-0.028282654
143	0xbe68c5ba	-0.22731677
144	0xbd9a759d	-0.07541964
145	0x3d6e113e	0.058121912
146	0x3e29f302	0.16596606
147	0x3d885f62	0.06658818
148	0x3d1cc790	0.038276255
149	0x3dac0773	0.08399858
150	0xbd24fb34	-0.04027863
151	0xbb304055	-0.0026893814
152	0xbd4d13f6	-0.050067864
153	0x3c85bd16	0.016325515
154	0x3cb5d5b4	0.022196628
155	0x3d9ca0e8	0.07647878
156	0x3c5d1689	0.013494142
157	0x3ca8158a	0.020518083
158	0x3d6edcca	0.05831603
159	0x3dd71278	0.105015695
160	0x3dfc2f92	0.12313761
161	0x3d467a4c	0.048456475
162	0xbd88dd6c	-0.06682858
163	0x3b8946ee	0.0041893637
164	0x3d53cd49	0.051709447
165	0x3d7ca14a	0.061677255
166	0x3d847c7e	0.064690575
167	0x3dc4a433	0.09601631
168	0x3da91dc3	0.0825763
169	0xbd1424d7	-0.036167946
170	0xbda7fc36	-0.08202402
171	0xbdcb5b23	-0.09929492
172	0xbdb96a10	-0.09053433
173	0x3d4f4cfe	0.050610535
174	0x3d4cbe84	0.049986377
175	0xbcd4ef5f	-0.025993047
176	0xbb8426bf	-0.004032939
177	0x3bcc7d8c	0.0062405523
178	0x3d1dd474	0.03853269
179	0xbc72a949	-0.014810869
180	0x3cc0ac0c	0.023519538
181	0xbcf11a92	-0.029431615
182	0xbd9936bf	-0.07481145
183	0xbdb5a762	-0.08869816
184	0xbe06129c	-0.13093036
185	0xbe14f355	-0.14545949
186	0xbdf506c2	-0.119641796
187	0xbdbacf33	-0.09121551
188	0xbe037700	-0.12838364
189	0xbdb2f44a	-0.08738001
190	0xbd57f65d	-0.052725185
191	0x3c84e3fb	0.01622199
192	0xbde3e2d5	-0.11127249
193	0xbd6be458	-0.057590812
194	0xbe044602	-0.12917331
195	0x3d3a993c	0.045556292
196	0x3d7cc286	0.06170895
197	0x3dc85357	0.09781521
198	0x3d95de1f	0.07317757
199	0xbd9fceb2	-0.07803096
200	0x3d1da25c	0.038484916
201	0xbd69d5f5	-0.05708881
202	0xbca4b70a	-0.020106811
203	0x3c9f1076	0.019417029
204	0x3e1fc053	0.1560071
205	0x3dea7e6a	0.11449893
206	0x3e0e65d9	0.1390604
207	0x3d6ed162	0.05830515
208	0x3dc800be	0.097657666
209	0x3d7aa7ee	0.061195306
210	0xbc4d296c	-0.012522083
211	0x3d8868c7	0.0666061
212	0x3c0e2578	0.008675925
213	0x3dbd221c	0.092350215
214	0x3dc40a7e	0.09572314
215	0x3e115b55	0.14194997
216	0x3c347733	0.011014747
217	0xbd23adb6	-0.039960586
218	0xbd8db8d4	-0.06920019
219	0xbd32d0a9	-0.043656025
220	0x3dd9d0f3	0.10635557
221	0x3d70273d	0.05863117
222	0x3e11edac	0.14250821
223	0x3d6467a6	0.05576291
224	0xbabe1285	-0.0014501369
225	0x3d245a03	0.040124904
226	0xbd18617a	-0.037202336
227	0x3d26ab0b	0.040690463
228	0x3ce0302c	0.02736672
229	0x3dd32b85	0.10311035
230	0x3de72e19	0.11288089
231	0xbd0fbfbb	-0.035094958
232	0x3d680891	0.056648795
233	0x3dd0712f	0.10177838
234	0x3dade253	0.084904335
235	0xbd76adbc	-0.06022428
236	0xbcdeaef4	-0.027183034
237	0x3d9e50ff	0.077302925
238	0x3d25220a	0.040315665
239	0xbc3d1aaa	-0.011542002
240	0xbda8041a	-0.08203907
241	0xbc891e9f	-0.016738234
242	0x3dbd86ca	0.092542246
243	0x3c2b8967	0.010469771
244	0xbda7281b	-0.081619464
245	0x3bcae8fc	0.0061923247
246	0x3dbe9690	0.09306061
247	0xbdf238ff	-0.118272774
248	0x3d74a19f	0.059724446
249	0x3c8951e6	0.016762685
250	0xbc2a4749	-0.010392972
251	0xbdc97ba8	-0.09838039
252	0x3cfcf975	0.03088067
253	0x3e11f1fb	0.14252464
254	0x3df1dcfa	0.11809726
255	0x3d9199f5	0.07109443

onnx::Conv_81 f4 [16]
0	0xbeb011ba	-0.34388524
1	0xbf800829	-1.000249
2	0x3e8b494a	0.27204353
3	0xbfb995bc	-1.449882
4	0xbf94ece9	-1.1634799
5	0x3f38295f	0.7193813
6	0x3fb9d14b	1.4516996
7	0xbf38f4a7	-0.7224831
8	0x3fb78030	1.4335995
9	0x3da704f4	0.081552416
10	0xbebb39fe	-0.36567682
11	0xbf8bff53	-1.0937294
12	0xbe5abeaf	-0.21361803
13	0x3fa80420	1.3126259
14	0x3f146398	0.5796447
15	0x3fb18c26	1.3870895

onnx::Conv_83 f4 [32, 16, 3, 3]
0	0xbd7c7fbb	-0.06164525
1	0xbce78591	-0.028261932
2	0xbd1a2202	-0.03763009
3	0xbcf0b40d	-0.02938273
4	0xbc84bdbd	-0.016203756
5	0xbd3cada5	-0.046064038
6	0xbd21548a	-0.039387263
7	0x3ce645f9	0.028109537
8	0xbbce90cf	-0.0063038836
9	0x3d8fa2ee	0.07013498
10	0x3d39fcca	0.045407094
11	0xbd481e48	-0.048857003
12	0x3d020b90	0.031749308
13	0xbd0e7b7f	-0.034785744
14	0xb9bdb2e5	-0.00036182176
15	0xbd9e0586	-0.07715897
16	0x3d73dc18	0.05953607
17	0xbc785ea0	-0.015159279
18	0xbd09b4e2	-0.03361977
19	0x3d725d4f	0.059171017
20	0xbcec052b	-0.028811058
21	0x3cb41e2c	0.021987043
22	0x3d5b1c1b	0.0534936
23	0xbd4e8719	-0.050421808
24	0xbdbdea77	-0.09273236
25	0x3c9b352f	0.018946258
26	0x3d19b276	0.03752371
27	0xbd5aa1ed	-0.05337708
28	0xbbcafcf2	-0.006194704
29	0xbd172bd4	-0.036907032
30	0xbda8a4a5	-0.082345285
31	0xbd693ae6	-0.056940936
32	0xbbcd7c2d	-0.0062709064
33	0xbd9b0b34	-0.07570496
34	0xbd1eca6e	-0.03876727
35	0xbd542b93	-0.051799368
36	0xbd417004	-0.047225967
37	0xbd540efc	-0.051772103
38	0xbcf8e039	-0.030380355
39	0xbcda1710	-0.026622325
40	0x3d03d25c	0.032183036
41	0xbd7aee6f	-0.061262544
42	0xbc91c3be	-0.017793532
43	0xbbf4bd55	-0.007468859
44	0x3d237bf2	0.039913125
45	0x3dd32b20	0.1031096
46	0x3e10cd82	0.14140895
47	0x3b84ae95	0.004049132
48	0xbb5412c5	-0.003235982
49	0x3d366096	0.044525705
50	0x3c376ba9	0.011195102
51	0xbda593f5	-0.08084861
52	0xbc48680e	-0.01223184
53	0x3c499d69	0.012305596
54	0x3cd2b53e	0.025721189
55	0x3c7bde43	0.015372816
56	0x3cff664e	0.031176712
57	0xbd112cee	-0.03544324
58	0x3dde6bcb	0.108604036
59	0x3d75c1ed	0.059999395
60	0xbda1fd2d	-0.079096176
61	0xbc21fecc	-0.009887408
62	0xbb16a141	-0.0022984298
63	0xbcd1e010	-0.025619537
64	0x3d2f11a6	0.04274144
65	0xbdb2e6a0	-0.087353945
66	0xbd1abca1	-0.037777547
67	0xbc4413ab	-0.01196758
68	0xbd774262	-0.060366042
69	0xbcbd2821	-0.023090424
70	0x3d88ec36	0.06685679
71	0xbc4dfeb7	-0.012572936
72	0xbd609090	-0.054825366
73	0x3da7e886	0.08198647
74	0x3c152b81	0.00910461
75	0x3c309c7d	0.010779497
76	0xbb029e28	-0.0019930694
77	0x3be63684	0.0070255417
78	0xbc89f662	-0.016841117
79	0x3d20f007	0.039291408
80	0x3c858d88	0.016302839
81	0x3ce0fa96	0.027463239
82	0xbd839fc3	-0.064269565
83	0xbd05ce37	-0.032667365
84	0xbcecc079	-0.028900372
85	0xbd73cf15	-0.05952366
86	0x3d8fd487	0.07022958
87	0xbc911c4b	-0.017713686
88	0xbc9fdfbe	-0.019515868
89	0xbc83c4e9	-0.016085105
90	0xbc0ae7cf	-0.008478119
91	0x3cd901e4	0.02649016
92	0x3bb89788	0.0056332983
93	0x3ca80e19	0.020514535
94	0x3db61721	0.0889113
95	0x3cf5829c	0.029969506
96	0x3c914c0c	0.017736457
97	0x3dc005a6	0.09376077
98	0x3cb44f4b	0.022010466
99	0x3c21c5fc	0.009873863
100	0x3d1525dd	0.036413062
101	0x3ca17577	0.019709332
102	0xbc6a6156	-0.014305433
103	0xbd4ce874	-0.050026372
104	0x3ca52505	0.020159254
105	0xbcaad9fc	-0.020855896
106	0xbd92db60	-0.07170749
107	0xbd3bc904	-0.045846
108	0x3e08d515	0.13362534
109	0x3deef478	0.116677225
110	0x3d68b485	0.05681278
111	0x3b81b998	0.003958892
112	0x3d9c4c5c	0.07631752
113	0xbd93c89a	-0.07215996
114	0xbc3e2e2d	-0.011607689
115	0x3d00c68a	0.03143934
116	0xbdded3f8	-0.108802736
117	0x3ccce947	0.025013579
118	0x3d3af244	0.0456412
119	0x3d0bce00	0.034132004
120	0xb8b5b043	-8.663584e-05
121	0x3d3db975	0.046319444
122	0xbced7072	-0.028984282
123	0xbd17a1c9	-0.037019525
124	0x3dc0bb64	0.09410742
125	0x3c41d0ec	0.011829596
126	0x3da0532f	0.07828366
127	0x3c65c000	0.014022827
128	0xbc1e802a	-0.009674111
129	0xbc065bcc	-0.008200597
130	0xbd2c01d8	-0.041993946
131	0xbd747c3a	-0.059688784
132	0xbd701855	-0.058616955
133	0xbd945493	-0.07242694
134	0xbd562493	-0.052280974
135	0xbd8c9770	-0.06864822
136	0x3b68c07f	0.0035515127
137	0xbbdd3ebc	-0.0067518633
138	0xbc810ead	-0.015754068
139	0xbd2673fb	-0.04063795
140	0xbc06dacd	-0.008230877
141	0x3cb1410a	0.021637458
142	0xbd90df26	-0.07073812
143	0xbd31dfc0	-0.043426275
144	0xbc9d4ee7	-0.019202663
145	0x3d14ba80	0.036310673
146	0x3c6647c0	0.0140551925
147	0x3babf67d	0.0052478896
148	0xbcb2de72	-0.021834586
149	0x3a4a1ee8	0.0007710294
150	0x3cb30cb8	0.02185665
151	0xbc3e84f5	-0.011628379
152	0xbc835501	-0.016031744
153	0x3cb70f5d	0.022346193
154	0x3cee3698	0.029078767
155	0xbc209daa	-0.009803215
156	0xbcab4c2a	-0.020910341
157	0xbafd558f	-0.0019327867
158	0x3c2ade2d	0.010428947
159	0x3c254526	0.010087287
160	0xbc5e75f8	-0.013577931
161	0x3a47d136	0.00076224224
162	0xbcf4f558	-0.029902145
163	0xbd212eec	-0.03935139
164	0xbd931047	-0.07180839
165	0xbd7fd055	-0.06245454
166	0x3ccd46fe	0.025058266
167	0x3bf2e6b4	0.007412756
168	0xbd720e06	-0.059095405
169	0xbd6652b2	-0.05623121
170	0x3c0d7b52	0.008635359
171	0xbae999c2	-0.0017822313
172	0x3ccbcf10	0.024879009
173	0xbae8da85	-0.0017765319
174	0xbc7721c6	-0.015083736
175	0xbc3a8713	-0.011384743
176	0x3c75e38f	0.0150078675
177	0xbc682170	-0.014168128
178	0xbb4a0b7c	-0.00308296
179	0xbc562f24	-0.013072763
180	0x3d1b6644	0.037939325
181	0xbd1fa716	-0.038977705
182	0x3cfcf1b7	0.030876977
183	0xbd662a85	-0.056192894
184	0x3c252bee	0.010081274
185	0xbcb18d58	-0.021673843
186	0x3b8731e8	0.0041258223
187	0x3b944121	0.0045243655
188	0xbb74af15	-0.0037335802
189	0xbcd150ad	-0.025551165
190	0xbd0488ad	-0.032356907
191	0xbd08950c	-0.033345267
192	0x3c93bdc6	0.018034827
193	0xbd04c084	-0.03241016
194	0xbc8234a1	-0.015894236
195	0xbd847745	-0.06468061
196	0x3cdadcaf	0.026716558
197	0xbd5af502	-0.053456314
198	0xbcce9bf7	-0.025220854
199	0x3d47a9cb	0.04874591
200	0xbcc433d2	-0.023950491
201	0x3cd654b6	0.02616344
202	0x3d572144	0.05252196
203	0xbab90562	-0.0014115984
204	0x3c9b8766	0.018985461
205	0xbaedbd46	-0.0018138073
206	0xbbba706d	-0.0056896717
207	0x3bd86eaa	0.006604989
208	0xbc9cfaf1	-0.019162627
209	0xbd1434f4	-0.036183313
210	0xbd195e2c	-0.037443325
211	0xbc942477	-0.018083794
212	0xbd859d6a	-0.06524165
213	0x3c22e161	0.00994143
214	0xbd0718a9	-0.032982502
215	0xbcfe3f79	-0.031036125
216	0x3c8781a1	0.016541304
217	0x3cb58041	0.022155883
218	0xba32c1cd	-0.00068190397
219	0x3cfaac19	0.03059964
220	0x3d695836	0.05696889
221	0x3b67e784	0.0035385797
222	0xbcab539b	-0.02091389
223	0xbc8d7872	-0.017269347
224	0xbcdea389	-0.027177589
225	0xbd7e0986	-0.0620208
226	0xbd34230c	-0.043978736
227	0xbc49664f	-0.012292459
228	0x3c560cea	0.013064602
229	0x3d158c8b	0.036510985
230	0xbd619865	-0.055076975
231	0x3c8fead2	0.017568026
232	0x3cc2b3e1	0.023767414
233	0x3d06b53e	0.03288769
234	0x3ba630f7	0.005071755
235	0x3a90e7ee	0.0011055449
236	0x3d5cdd01	0.053921703
237	0x3c6a628e	0.014305724
238	0xbc8aae76	-0.016928893
239	0xbca4e0b8	-0.020126686
240	0xbc87100b	-0.016487142
241	0xbc98aa71	-0.01863596
242	0xbcdc8f85	-0.026923904
243	0x3c7de938	0.015497498
244	0xbbdf678e	-0.0068177646
245	0x3bebb73f	0.0071934755
246	0xbc8884a4	-0.01666481
247	0x3cc2a579	0.023760544
248	0x3ce34591	0.027743133
249	0x3c647975	0.013944973
250	0x3cc8bc46	0.024503838
251	0x3bba5af5	0.0056871125
252	0xbce62649	-0.028094428
253	0xbd5a6178	-0.05331561
254	0xbd503095	-0.05082758
255	0xbcf23af9	-0.029569136

onnx::Conv_84 f4 [32]
0	0x3dd1e5b9	0.10248894
1	0x3eaae690	0.3337903
2	0xbe7bb719	-0.24581565
3	0x3f9822c5	1.1885611
4	0x3e371b3c	0.17881483
5	0xbec54557	-0.38529465
6	0x3ed0c05a	0.40771753
7	0x3e13435d	0.14381166
8	0x3f1491db	0.5803506
9	0x3f0df85f	0.5545711
10	0xbe9002bc	-0.28127086
11	0x3f1a2059	0.6020561
12	0xbe940be5	-0.28915325
13	0xbe6b85ad	-0.23000212
14	0x3f154acd	0.5831726
15	0xbeff6866	-0.49884337
16	0x3f74600a	0.95459044
17	0x3eebf432	0.46084744
18	0x3d48d0ed	0.049027372
19	0x3f27a2a1	0.65482527
20	0xbea74212	-0.32667595
21	0xbd2e0630	-0.04248637
22	0x3ec00129	0.37500885
23	0x3e5e7cba	0.21727267
24	0x3e93a01d	0.28833094
25	0x3eba3eb7	0.36375973
26	0x3f9a8610	1.2072163
27	0x3f0c136c	0.54717135
28	0x3efcc6ca	0.49370414
29	0x3e899c5c	0.26877105
30	0xbc97c3c1	-0.01852596
31	0x3efbfd5c	0.49216735

onnx::Conv_86 f4 [32, 32, 3, 3]
0	0xbdddc44d	-0.10828457
1	0xbb11e50f	-0.0022261774
2	0xbc5622a4	-0.013069782
3	0x3d85f3d7	0.065406494
4	0x3ccc5297	0.024941726
5	0x3d45a1b3	0.04824991
6	0x3de6bdfd	0.11266706
7	0x3ce38e09	0.027777689
8	0x3cfb9fba	0.030715812
9	0x3dcf38cc	0.10118255
10	0x3d77dd7d	0.060513962
11	0x3d6eb530	0.058278263
12	0x3db03918	0.0860464
13	0x3c70ece3	0.014704916
14	0x3dc98511	0.098398335
15	0x3d932833	0.07185402
16	0x3df7d715	0.121015705
17	0x3d44a324	0.048007146
18	0x3ca2ebe5	0.019887874
19	0x3d47cc2a	0.04877869
20	0xb9741e39	-0.00023280912
21	0xbdbde7d9	-0.09272737
22	0x3de4b748	0.111677706
23	0x3db90844	0.0903478
24	0xbd8ee725	-0.06977681
25	0x3d9e8ae5	0.07741336
26	0x3d4c8768	0.04993382
27	0x3cbd7bc3	0.023130303
28	0xbc4828e4	-0.01221678
29	0x3c2c94b4	0.0105335
30	0xbdf7add1	-0.120937
31	0xbd5cf033	-0.05394001
32	0xbd16d58c	-0.036824748
33	0xbdd62d73	-0.104578875
34	0xbd087057	-0.03331026
35	0xbdaa1f47	-0.08306747
36	0x3c152c35	0.009104778
37	0xbd42b52d	-0.047536064
38	0x3cbcfa8c	0.023068689
39	0xbd19acde	-0.037518375
40	0x3be8a9f0	0.0071003363
41	0xbdb8ed62	-0.09029652
42	0xbdea36da	-0.11436243
43	0xbe07cd65	-0.13261946
44	0xbd870674	-0.06593028
45	0xb9358bd2	-0.00017313592
46	0x3d784790	0.060615122
47	0xbd8934cb	-0.066995226
48	0x3db4d6aa	0.088300064
49	0xbd0499fb	-0.03237341
50	0xbdf42921	-0.11921907
51	0xbdb959b8	-0.090503156
52	0xbd150ef4	-0.036391214
53	0x3c33d82b	0.010976831
54	0x3cd4eae2	0.025990907
55	0x3cb9b1de	0.022667821
56	0x3dc85eda	0.097837165
57	0x3db9bc02	0.09069063
58	0xbc137277	-0.0089994585
59	0x3de0e514	0.10981193
60	0x3d84551e	0.06461547
61	0x3e02c442	0.12770179
62	0x3dcc2e67	0.09969788
63	0xba30ada5	-0.0006739742
64	0x3de34f28	0.11099082
65	0x3e31d2a6	0.17365512
66	0x3c9bbc1a	0.019010592
67	0xba994eb9	-0.0011696435
68	0xbd1f5629	-0.038900528
69	0x3d3ae7a6	0.045631073
70	0x3d5e1be9	0.054225836
71	0x3e0012dc	0.12507194
72	0x3d8bac39	0.06819958
73	0x3d794278	0.060854405
74	0x3d9803cc	0.07422599
75	0x3d7c55bc	0.0616052
76	0x3d0b4001	0.033996586
77	0x3d3d637a	0.046237446
78	0xbdb01824	-0.085983545
79	0xbcc592ff	-0.024117945
80	0xbca4dd21	-0.020124974
81	0x3d94fb7b	0.072745286
82	0xbc74cd85	-0.014941578
83	0x3d7a07a7	0.061042454
84	0x3da64ccc	0.081201166
85	0x3dfa082a	0.122085884
86	0x3c5002bb	0.0126959635
87	0x3e0380fe	0.12842175
88	0x3e20a3e4	0.1568752
89	0x3c47a361	0.012184949
90	0xbca8fa45	-0.02062715
91	0x3ca26851	0.019825133
92	0x3d1863e9	0.037204657
93	0xbd2f9580	-0.042867184
94	0xbbe80759	-0.007080954
95	0xbbee1e4f	-0.0072667967
96	0x3db9a337	0.09064334
97	0x3db15afb	0.08659931
98	0x3da7eb83	0.08199217
99	0xbcf97bab	-0.030454477
100	0xbd005566	-0.031331442
101	0x3c58ef89	0.013240703
102	0xbd83516b	-0.064120136
103	0xbd1e83f4	-0.03870006
104	0xbd39f60f	-0.045400675
105	0x3cc91e1f	0.024550496
106	0xbd06653b	-0.032811385
107	0x3c137f89	0.009002575
108	0x3db0750a	0.086160734
109	0x3d854a4d	0.065083124
110	0x3dbb4f4f	0.09145986
111	0x3d2e5404	0.042560592
112	0x3d8ca789	0.06867892
113	0x3cab4164	0.020905204
114	0x3daf58cc	0.085618585
115	0xbc87ce33	-0.016577816
116	0x3db97295	0.09055058
117	0x3c9094c7	0.017649068
118	0x3c2c3a4c	0.010511946
119	0x3c9513f0	0.018197984
120	0xbd32be76	-0.04363867
121	0x3d8af833	0.067856215
122	0x3b764ee8	0.0037583653
123	0x3e119bc8	0.14219582
124	0x3e43dbbf	0.19126795
125	0x3da9f2a1	0.08298231
126	0x3d54bbaa	0.051936783
127	0x3c22b2e6	0.009930348
128	0x3e081a45	0.13291271
129	0xbd0876a4	-0.03331627
130	0xbda26201	-0.07928849
131	0xbccb5aa0	-0.024823487
132	0x3cd35cb9	0.02580105
133	0x3df745d3	0.12073865
134	0x3e0625b8	0.13100326
135	0xbcf08b54	-0.029363312
136	0xbd752e16	-0.059858404
137	0xbbfa7644	-0.007643493
138	0xbc855f1a	-0.0162807
139	0x3d83a87c	0.0642862
140	0xbde6aefb	-0.112638436
141	0x3d8dee64	0.06930235
142	0xbced16c2	-0.028941516
143	0xbd4a8ce8	-0.049450785
144	0x3d4b4a66	0.0496315
145	0x3db79632	0.08964194
146	0x3c4d78fa	0.01254105
147	0xbcf39beb	-0.029737433
148	0xbccd2026	-0.025039744
149	0xbdcd42fc	-0.10022542
150	0xbd99a122	-0.07501437
151	0xbda36d3e	-0.07979821
152	0xbd497443	-0.04918314
153	0x3cff6e7e	0.031180616
154	0x3c1d81ec	0.009613495
155	0xbd7a7ea5	-0.061155934
156	0x3ca70ca1	0.020391764
157	0xbcafac1b	-0.021444371
158	0xbdb63caa	-0.088982895
159	0xbd22925a	-0.039690353
160	0xbd9a7c38	-0.07543224
161	0xbd900d88	-0.07033831
162	0xbe7223bc	-0.23646444
163	0xbdcb3a42	-0.09923221
164	0xbdd2285a	-0.10261603
165	0xbd4b2e34	-0.04960461
166	0x3db9e7ce	0.09077416
167	0xbda61d89	-0.08111102
168	0x3c6df93b	0.014524753
169	0x3da24d47	0.07924896
170	0x3d4369f9	0.047708485
171	0x3cbf1089	0.023323314
172	0x3e2b3977	0.1672114
173	0x3dfcb470	0.12339103
174	0xbdc2a8c0	-0.09504843
175	0xbd3ecfcf	-0.0465849
176	0xbd04243f	-0.03226113
177	0x3d2c4fab	0.042068165
178	0xbc9c2d40	-0.019064546
179	0x3d71152f	0.058858093
180	0x3c2aa49b	0.010415222
181	0x3df62f9b	0.12020799
182	0xbc929d4e	-0.017897274
183	0x3e133861	0.14376976
184	0x3cd07390	0.02544573
185	0x3e046b8d	0.12931652
186	0xbd33ba91	-0.043879095
187	0x3d1ddd49	0.038541112
188	0xbda6070a	-0.08106811
189	0x3db35db0	0.08758104
190	0x3e2ff4eb	0.17183273
191	0x3d75c493	0.06000192
192	0xbdae8a26	-0.085224435
193	0x3da61a90	0.08110535
194	0x3dd79fd0	0.10528529
195	0x3d87ca82	0.06630422
196	0x3a8d669a	0.0010788024
197	0x3d4b1440	0.04957986
198	0x3d582453	0.052769016
199	0x3d6d5a80	0.057947636
200	0xbd8b49de	-0.068011984
201	0x3d4d6110	0.050141394
202	0xbc5820e7	-0.013191438
203	0xbd2d6f6b	-0.042342585
204	0x3d8b455a	0.06800337
205	0x3da6c1a1	0.081424005
206	0x3da3f134	0.0800499
207	0xbd764aeb	-0.06013004
208	0x3b58417b	0.0032998014
209	0xbc0b0679	-0.00848543
210	0xbe7e1a66	-0.24814758
211	0xbd2d4f86	-0.042312168
212	0xbe381041	-0.1797495
213	0xbe0bdad0	-0.13657689
214	0xbd8e88bd	-0.069596745
215	0xbd8b9c61	-0.06816936
216	0x3d4d41a0	0.050111413
217	0x3e035df6	0.12828812
218	0x3d0f5244	0.034990564
219	0xbd09fc5b	-0.03368793
220	0x3df8438f	0.12122261
221	0xbae840a7	-0.0017719463
222	0xbd0d455a	-0.034489967
223	0x3c013940	0.007887185
224	0xbd0dd2bf	-0.03462481
225	0xbb26dbf2	-0.0025460687
226	0x3d747ca2	0.05968917
227	0x3d1b2ec4	0.037886396
228	0xbd1aa7ff	-0.03775787
229	0xbcdeefb5	-0.02721391
230	0xbd4b998e	-0.049706988
231	0x3ced55a3	0.028971499
232	0x3d63c04c	0.05560331
233	0x3ddad883	0.106858276
234	0x3cb09169	0.021553712
235	0xbc1fb333	-0.009747314
236	0xbd62c0f9	-0.055359814
237	0xbb83df61	-0.0040244316
238	0xbcc07a8b	-0.023495933
239	0xbd761624	-0.06007971
240	0xbd85af71	-0.065276034
241	0x3d80d919	0.06291408
242	0xbd37c874	-0.0448689
243	0xbd0f1c7a	-0.034939267
244	0xbdc6ef09	-0.09713561
245	0x3bc7f9ec	0.006102791
246	0xbd5f7968	-0.05455914
247	0xbd92eaeb	-0.07173713
248	0xb9d72087	-0.0004103223
249	0xbb9ae918	-0.004727494
250	0xbc5da747	-0.013528652
251	0x3b614257	0.0034371817
252	0x3cae37e4	0.021266885
253	0x3d81b105	0.06332592
254	0x3d88aee7	0.06673985
255	0xbd279ad4	-0.04091914

onnx::Conv_87 f4 [32]
0	0xbeaf3f82	-0.3422814
1	0xbf303945	-0.68837386
2	0x3d65545b	0.05598865
3	0xbf35b612	-0.7098094
4	0x3ea74506	0.32669848
5	0xbcd0083e	-0.025394555
6	0xbe14c3fb	-0.14527886
7	0xbc43186c	-0.011907678
8	0xbdd7e4d5	-0.10541693
9	0x3ea7bb4f	0.32760093
10	0xbd364e48	-0.04450825
11	0x3b49a820	0.0030770376
12	0xbdc7f7c2	-0.09764053
13	0xbf24b850	-0.6434374
14	0x3e2f5c41	0.17125036
15	0xbec7f324	-0.3905269
16	0xbdf8be62	-0.12145688
17	0xbf0f7e28	-0.56051874
18	0xbdbb49da	-0.091449454
19	0xbdaac082	-0.08337499
20	0xbd839e51	-0.06426681
21	0x3ef34b83	0.47518548
22	0x3d1a4314	0.037661627
23	0x3d967c3a	0.07347913
24	0xbe709df5	-0.23497756
25	0xbef0939e	-0.46987623
26	0x3ef0ca16	0.4702918
27	0x3e37e324	0.17957741
28	0x3f60893a	0.8770939
29	0x3e563b42	0.20921043
30	0xbd26a038	-0.04068014
31	0x3e5a4789	0.21316351

onnx::Conv_89 f4 [32, 16, 1, 1]
0	0x3e004917	0.12527882
1	0x3e4b110f	0.19830726
2	0xbe863d6c	-0.26218736
3	0xbdacf6ae	-0.08445488
4	0x3e2d41e7	0.16919671
5	0xbd4a8cf1	-0.04945082
6	0x3e14c551	0.14528395
7	0x3e2b1446	0.16706952
8	0x3d8c5dd5	0.068538345
9	0xbe3d1bb3	-0.18467598
10	0x3de6bff5	0.11267082
11	0xbd7f5464	-0.06233634
12	0xbe64cb16	-0.22343096
13	0x3d98df74	0.07464495
14	0xbe6569ef	-0.22403692
15	0x3e3bbabb	0.18332951
16	0xbe36ad78	-0.1783961
17	0x3ed2b612	0.41154534
18	0xbe49e70b	-0.19717042
19	0x3d855045	0.06509451
20	0xbea1095e	-0.3145246
21	0xbe255dff	-0.16149138
22	0x3e5ef83c	0.21774381
23	0x3e5bc4ff	0.21461867
24	0x3e74a21c	0.23889965
25	0x3cd9138e	0.026498582
26	0xbdf46f00	-0.11935234
27	0xbdc6dec4	-0.09710458
28	0xbed1e399	-0.40993956
29	0x3db73d62	0.08947255
30	0xbeb0323f	-0.34413335
31	0xbe3a08b3	-0.18167381
32	0xbe62edce	-0.22161028
33	0x3e69b315	0.2282222
34	0xbe13d4f6	-0.14436707
35	0x3d59063a	0.052984454
36	0xbe82a74f	-0.2551827
37	0x3d8e88b4	0.06959668
38	0x3ea60ca5	0.32431522
39	0xbe96a591	-0.29423192
40	0xbdc2c656	-0.09510486
41	0xbe450bbc	-0.19242758
42	0xbe13a5e3	-0.1441875
43	0xbe0acd5a	-0.13554898
44	0xbe8b86f1	-0.2725139
45	0x3e514abe	0.20438668
46	0x3d9e7bcd	0.07738457
47	0xbe27642e	-0.1634681
48	0x3df43392	0.11923899
49	0x3bd1f8f4	0.0064078514
50	0xbe542aff	-0.20719527
51	0x3e02fa61	0.12790824
52	0xbdb85726	-0.09000997
53	0xbe70efd2	-0.23528984
54	0xbd76a8df	-0.06021964
55	0x3c662f11	0.014049307
56	0xbd7f6bc4	-0.062358633
57	0xbdf48730	-0.119398475
58	0x3e235cf9	0.15953435
59	0xba8eef4e	-0.0010905059
60	0xbe31eb3c	-0.17374891
61	0xbdc5520f	-0.09634792
62	0x3dd31a83	0.10307791
63	0x3dba07a3	0.09083488
64	0xbb14882f	-0.002266418
65	0xbca2173c	-0.01978647
66	0xbd960a8b	-0.0732623
67	0x3e2dc6c7	0.16970359
68	0x3e687223	0.2269979
69	0xbda28232	-0.07934989
70	0xbdee8ee3	-0.11648347
71	0x3e41269e	0.18862388
72	0x3da71ad3	0.08159413
73	0xbe7df369	-0.24799885
74	0xbdefaef9	-0.11703295
75	0x3e18c33d	0.14918227
76	0x3c1e8846	0.009676045
77	0xbe1c8b7d	-0.15287586
78	0xba1f2cff	-0.00060720736
79	0x3e31086e	0.17288372
80	0x3e62f233	0.22162704
81	0xbeff7b7c	-0.498989
82	0xbe1d7d52	-0.15379837
83	0x3e306b4e	0.17228433
84	0xbe886625	-0.2664043
85	0x3d951b14	0.07280555
86	0xbe434b2d	-0.19071646
87	0xbe46ea2f	-0.19425271
88	0x3de43a2c	0.11143908
89	0x3ed98b1b	0.42488942
90	0xbe3ce282	-0.18445781
91	0x3f002f6e	0.5007237
92	0x3e1a9630	0.15096354
93	0x3e2b0dfb	0.16704552
94	0x3eadd8c9	0.33954456
95	0x3e9a5277	0.3014104
96	0x3d9c3733	0.07627716
97	0x3e864a1f	0.26228425
98	0x3e19b4da	0.15010396
99	0x3e2be29a	0.1678566
100	0xbe08ce3c	-0.13359922
101	0x3e47fcb7	0.19529997
102	0x3dcbe9e7	0.09956723
103	0xbe07ab2e	-0.13248894
104	0x3dc7cfe2	0.097564474
105	0x3ea5355d	0.32267275
106	0x3c318d62	0.010836931
107	0x3e0bb99e	0.13645026
108	0x3cf542e1	0.029939117
109	0x3da5566f	0.080731265
110	0x3e332c31	0.17497326
111	0xbe2dbbc6	-0.16966161
112	0x3f2614d7	0.6487555
113	0xbf39604f	-0.7241258
114	0x3e5453f9	0.20735158
115	0x3c425a59	0.011862361
116	0xbd2f6363	-0.042819392
117	0x3eed7c36	0.46383828
118	0xbea21a97	-0.3166091
119	0xbf33e89c	-0.7027681
120	0xbe522173	-0.20520572
121	0xbe6bf721	-0.23043491
122	0xbf498210	-0.78714085
123	0x3ea05315	0.31313387
124	0x3e4bc58b	0.19899575
125	0xbe67b3e9	-0.22627224
126	0x3ee66719	0.45000532
127	0x3e844f1d	0.2584161
128	0xbdb92cf7	-0.090417795
129	0xbe476e62	-0.19475701
130	0xbd026198	-0.031831354
131	0x3e257264	0.16156918
132	0xbdfc8810	-0.12330639
133	0xbe9353e3	-0.28774938
134	0x3dafb0b7	0.085786276
135	0x3da49b36	0.08037417
136	0xbe5b4541	-0.21413137
137	0xbeb9f1c2	-0.3631726
138	0x3d331a92	0.04372651
139	0x3e825c02	0.2546082
140	0x3e895a8e	0.268269
141	0x3e8d449a	0.275914
142	0xbe5e9473	-0.21736316
143	0xbe071efa	-0.1319541
144	0x3ed948f8	0.42438483
145	0x3e95aafe	0.2923202
146	0x3eadedce	0.33970493
147	0x3eaa6b57	0.3328502
148	0x3be7b104	0.0070706625
149	0x3e3bc6d9	0.18337573
150	0x3e67c6cd	0.2263443
151	0x3be16d50	0.006879486
152	0xbe4fbe5f	-0.20287465
153	0x3e72e5aa	0.23720422
154	0x3d6669b9	0.05625317
155	0x3d0ee9f5	0.034891088
156	0xbeaa3584	-0.33243954
157	0x3f091e2d	0.5356167
158	0xbf178844	-0.591923
159	0xbeba9cbd	-0.36447707
160	0x3d5cc111	0.05389506
161	0x3e0e7b39	0.13914193
162	0x3ee8e291	0.45485356
163	0xbdac8437	-0.084236555
164	0xbe9587b2	-0.2920509
165	0x3e3a5737	0.18197332
166	0x3dfd7837	0.12376445
167	0x3ed55d16	0.4167258
168	0x3e710146	0.23535642
169	0x3e408ba0	0.18803263
170	0xbc9bbee2	-0.019011918
171	0xbd898cc2	-0.067163005
172	0x3e657a32	0.22409895
173	0x3ebb90e9	0.36633995
174	0xbeeb61bf	-0.45973012
175	0xbea10f63	-0.31457052
176	0xbe921a30	-0.28535604
177	0xbc017511	-0.007901446
178	0xbe80ad6f	-0.2513232
179	0xbdf7cfb3	-0.12100162
180	0x3e3b0f82	0.18267635
181	0xbe340001	-0.17578126
182	0x3e9f605c	0.31128204
183	0xbd1059fa	-0.03524206
184	0x3d0458ba	0.03231118
185	0xbe6a3410	-0.22871423
186	0x3e92aa87	0.28645727
187	0x3d94da0c	0.07268152
188	0x3ea04601	0.3130341
189	0x3ec32b40	0.38118935
190	0xbe8e7719	-0.2782524
191	0x3d7ee5a9	0.06223074
192	0xbce45172	-0.027870867
193	0x3e12430a	0.14283386
194	0x3ea3ebf7	0.32015964
195	0x3e067699	0.13131179
196	0xbdff38bc	-0.12461993
197	0xbde3eeb6	-0.11129515
198	0x3c38bd60	0.011275619
199	0xbe73c4fa	-0.2380561
200	0x3d91fe21	0.07128549
201	0x3ec2c42f	0.380403
202	0xb982da85	-0.00024958342
203	0x3e3fc580	0.18727684
204	0x3e8b56f1	0.2721477
205	0x3d993482	0.07480718
206	0x3e2972a8	0.16547644
207	0x3db5477c	0.08851525
208	0x3ddf5c3c	0.10906264
209	0x3e346529	0.17616715
210	0xbdbcccca	-0.09218748
211	0x3e61f019	0.22064246
212	0xbe976d8e	-0.2957577
213	0xbe8ad298	-0.27113795
214	0xbdb69eba	-0.089169934
215	0xbd811018	-0.06301898
216	0xbe309189	-0.17243017
217	0xbdc4c0cb	-0.09607085
218	0xbe68b894	-0.22726661
219	0x3e6c9a75	0.23105796
220	0x3d1898eb	0.03725521
221	0xbdb89fe4	-0.09014872
222	0x3e9bbdb0	0.30418158
223	0xbe6a597c	-0.22885698
224	0x3d4fe62e	0.050756626
225	0x3dc292cf	0.09500658
226	0xbe7c4058	-0.2463392
227	0xbe1eb9a9	-0.15500511
228	0xbe7e030a	-0.24805847
229	0xbe801250	-0.2501397
230	0x3ed4a5fa	0.4153288
231	0x3db4640d	0.08808146
232	0x3e02b25c	0.12763351
233	0xbd188f0a	-0.037245788
234	0x3dc955d0	0.098308206
235	0x3e8ddb4a	0.27706367
236	0xbd4cc2f3	-0.049990606
237	0xbdbc9223	-0.09207561
238	0x3efdc197	0.4956176
239	0x3e59dd29	0.21275772
240	0x3e098676	0.13430199
241	0x3ddda2ea	0.10822089
242	0x3d5318ce	0.051537327
243	0x3e226cd6	0.1586183
244	0xbd1e6442	-0.038669832
245	0xbd7b0fbc	-0.061294302
246	0xbcdbd319	-0.026834058
247	0x3defa115	0.11700646
248	0xbdce6a10	-0.100788236
249	0x3d50b721	0.050955895
250	0x3cc33e67	0.023833467
251	0xbca7041e	-0.020387705
252	0x3d4a8d0e	0.049450926
253	0xbde83bc4	-0.113395244
254	0x3db1d6bb	0.08683535
255	0xbd866513	-0.06562247

onnx::Conv_90 f4 [32]
0	0x3c8b8aec	0.017034017
1	0x3efcfd58	0.49412036
2	0x3f02a072	0.5102607
3	0x3e96e675	0.294727
4	0x3cc84109	0.024445074
5	0xbf3161ce	-0.69289863
6	0xbf6358bc	-0.8880727
7	0x3e5444e1	0.207294
8	0x3ecb1fa4	0.39672577
9	0xbf2931e0	-0.6609173
10	0xbf449e99	-0.768045
11	0xbd84ed3a	-0.0649056
12	0xbf5b3186	-0.8562244
13	0x3eb9a800	0.36260986
14	0xbef89814	-0.48553526
15	0xbe5820ec	-0.21106309
16	0x3ee53d8b	0.44773516
17	0xbeb123ed	-0.34597722
18	0x3eab14bf	0.33414266
19	0xbe770aa8	-0.24125159
20	0xbe93e82d	-0.28888074
21	0xbe309246	-0.17243299
22	0xbe8dfd24	-0.27732193
23	0xbedf5eb8	-0.43626952
24	0x3d9975f6	0.074932024
25	0x3de28fa0	0.110625505
26	0x3f0d3342	0.5515634
27	0x3e86b22a	0.26307803
28	0xbd3ac65b	-0.045599323
29	0xbe5ec87b	-0.21756165
30	0x3df2b8d8	0.118516624
31	0x3e787607	0.24263774

onnx::Conv_92 f4 [64, 32, 3, 3]
0	0xbc3d9ec1	-0.011573494
1	0xbcd4fa16	-0.025998157
2	0xbd2ccbdb	-0.0421866
3	0xbc058485	-0.008149271
4	0xbd61d6b7	-0.05513641
5	0xbd7dcdcb	-0.061963838
6	0xbd461f07	-0.048369434
7	0x3c69d6f1	0.014272437
8	0x3cb5e3e3	0.022203391
9	0xbba6a995	-0.0050861337
10	0xbc6db3dd	-0.014508215
11	0x3c8128f6	0.015766602
12	0xbd043650	-0.03227836
13	0xbcb66def	-0.022269217
14	0x3d0680e0	0.03283775
15	0xbd0fcf1d	-0.035109628
16	0xbca145f5	-0.019686678
17	0xbcdbf2e6	-0.026849221
18	0x3cc680af	0.024231283
19	0xbc4c7139	-0.012478166
20	0xbc34a144	-0.011024777
21	0x3d54361b	0.05180941
22	0x3b985ebe	0.004649966
23	0xbd2153ce	-0.039386563
24	0xba51bf98	-0.0008001267
25	0x3bbef33a	0.0058273347
26	0xbc8f6cb1	-0.017507883
27	0xbcdee397	-0.027208133
28	0x3c8a7d64	0.016905494
29	0xbc8df880	-0.017330408
30	0xbd20ac6d	-0.039226938
31	0x3d0bc77d	0.034125794
32	0x3d28b6d9	0.041190002
33	0xbceb4d96	-0.02872352
34	0xbc9d0ca2	-0.019171063
35	0xbcf86554	-0.030321755
36	0xbbd5d058	-0.0065250807
37	0xbc9e79ca	-0.019345183
38	0xbac43e45	-0.0014972171
39	0xbc9e1fca	-0.019302268
40	0xbc749180	-0.014927268
41	0xbc52dffe	-0.012870787
42	0x3c67f6cc	0.014157962
43	0x3ca7394d	0.020413065
44	0xbc05a159	-0.008156144
45	0x3bfd0d7e	0.0077225557
46	0x3b92d0e8	0.00448047
47	0x3b9f6892	0.0048647607
48	0x3b2a9504	0.0026028762
49	0xb8aab1fb	-8.139383e-05
50	0xbd0b1244	-0.033952966
51	0xbd17470b	-0.036932986
52	0xbd262531	-0.040562812
53	0xbc5b00db	-0.013366903
54	0xbcc6127d	-0.024178738
55	0x3c611199	0.013737106
56	0x3ce2dae3	0.027692264
57	0x3c484d78	0.012225501
58	0x3c0b75f3	0.008512008
59	0x3c639573	0.013890612
60	0xbcd6d8b7	-0.026226385
61	0xbcf97359	-0.03045051
62	0xbca71ec0	-0.020400405
63	0xbbb311c5	-0.005464765
64	0x3ca4a70f	0.020099191
65	0xbd263f72	-0.04058785
66	0xbc68c082	-0.014206054
67	0x3b2cb65b	0.002635381
68	0xbcda2b48	-0.026631966
69	0xbcc1a488	-0.023638025
70	0xbccd5443	-0.025064593
71	0xbd738a56	-0.0594581
72	0xbce75c9d	-0.028242404
73	0xbceb6e5e	-0.02873915
74	0xbc1406dc	-0.0090348385
75	0xbd1cc9ef	-0.038278516
76	0xbd1d67d5	-0.0384291
77	0xbb2770ac	-0.0025549335
78	0xbcec059a	-0.028811265
79	0xbd14c61c	-0.036321744
80	0xbd16c7df	-0.036811706
81	0x3d84b4cf	0.06479799
82	0x3d728743	0.059211027
83	0xbbbd16dd	-0.005770548
84	0x3bf0578e	0.007334656
85	0x3d1741c6	0.03692796
86	0x3d983d9d	0.07433627
87	0x3afdb6ef	0.0019356887
88	0x3c962837	0.018329723
89	0x3a370ebb	0.0006983091
90	0x3dad5d80	0.08465099
91	0x3c86e061	0.016464414
92	0xbc8a40af	-0.016876547
93	0x3d25b8c9	0.040459428
94	0x3d8917f4	0.06694022
95	0x3d12ae90	0.035811007
96	0x3c6a862d	0.014314217
97	0xbd5ab323	-0.053393494
98	0x3ada017c	0.0016632522
99	0xbd4ad464	-0.049518958
100	0xbd4183e7	-0.047244933
101	0xbca1426c	-0.019684993
102	0xbc6f44b8	-0.014603786
103	0xbc83f800	-0.016109467
104	0xbc3d7491	-0.011563436
105	0xbd129953	-0.035790753
106	0xbd8884b1	-0.06665934
107	0xbd898693	-0.06715121
108	0x3cca664b	0.02470698
109	0xbc31308d	-0.010814798
110	0x3bdf1732	0.006808185
111	0x3bb71040	0.005586654
112	0xbd2e20f5	-0.0425119
113	0xbcb571fb	-0.022149077
114	0xbc5daa9c	-0.013529446
115	0xbd59f46e	-0.053211622
116	0xbc382035	-0.0112381475
117	0xbb82f5e0	-0.0039965957
118	0x3c6505df	0.013978451
119	0xbc72ff6e	-0.014831407
120	0x3c155095	0.009113451
121	0xbcb99892	-0.022655759
122	0x3cfb2575	0.03065751
123	0xbcc35566	-0.023844432
124	0xbc61b282	-0.01377547
125	0xbc906474	-0.017626025
126	0xbd15aeb7	-0.036543574
127	0xbbd3927d	-0.0064566717
128	0xbce64218	-0.028107688
129	0xbd486e3c	-0.048933253
130	0xbd377a84	-0.044794574
131	0xbd28cc01	-0.04121018
132	0xbd02c449	-0.031925473
133	0x3a52cdc4	0.0008041526
134	0xbb716312	-0.0036832732
135	0x3c0a446b	0.008439164
136	0x3c8e99b8	0.017407283
137	0x3c7de79e	0.015497116
138	0x3b88862f	0.0041663866
139	0x3c7596af	0.014989539
140	0x3ba3b803	0.004996301
141	0xbb272f74	-0.0025510462
142	0x3c442776	0.011972299
143	0x3bef5667	0.007304001
144	0xbcb72a83	-0.022359138
145	0xbcad148f	-0.021127967
146	0xbd11e783	-0.035621177
147	0xbbe673c1	-0.007032842
148	0xbcc937de	-0.024562772
149	0xbce49c80	-0.027906656
150	0x3b981099	0.0046406505
151	0xbccd268a	-0.02504279
152	0xbcb18a9e	-0.021672543
153	0xbbdd7615	-0.0067584612
154	0xbc8cf0ca	-0.01720466
155	0x3c4bbe0a	0.012435446
156	0xbbf88ac0	-0.0075848997
157	0xbb928fa1	-0.0044726883
158	0xbcac52b0	-0.021035522
159	0xbc5e68ef	-0.013574823
160	0xbc6fae1d	-0.014628914
161	0x3bf7817b	0.007553277
162	0xbb29a26a	-0.002588416
163	0xbc9911e1	-0.018685283
164	0xbd036ffb	-0.032089215
165	0x3c45addb	0.012065376
166	0x3b77641c	0.0037748879
167	0x3c28eab5	0.010309865
168	0xbce553d7	-0.02799408
169	0xbc942a2f	-0.018086521
170	0x3c409d33	0.011756229
171	0x3ba29344	0.004961403
172	0xbd490107	-0.049073245
173	0xbc3086b0	-0.0107742995
174	0xbc1d81e6	-0.00961349
175	0xbd1968e8	-0.037453562
176	0xbb10a9bf	-0.0022073833
177	0x3d751e72	0.059843488
178	0xbba885f8	-0.0051429234
179	0xbcdadf66	-0.026717853
180	0x3c3fdd07	0.011710412
181	0x3b92469f	0.004463985
182	0x3d04516d	0.032304216
183	0x3aa261d2	0.0012388772
184	0x3ca3b5f0	0.019984215
185	0xbcb370fc	-0.021904461
186	0xbcaa6dff	-0.020804403
187	0xbd153fbf	-0.036437746
188	0xbd1b1cb2	-0.037869163
189	0x3b89c699	0.004204583
190	0x3bd75199	0.0065710065
191	0xbbfd4378	-0.00772899
192	0x3d9a45c9	0.07532842
193	0x3d2c8664	0.042120352
194	0x3d5eb749	0.054374013
195	0x3a9f13bc	0.0012136619
196	0xbc032a6c	-0.00800572
197	0x3bf49abe	0.007464736
198	0xbc47b75f	-0.012189715
199	0xbbe6c274	-0.0070422236
200	0xbc66f08e	-0.014095439
201	0xbc4a56b6	-0.012349775
202	0x3d329ead	0.043608356
203	0x3cb98424	0.022646017
204	0x3b5c2ccd	0.003359604
205	0x3cb66770	0.02226612
206	0x3cf78cf8	0.030218586
207	0xbc92dde7	-0.017928077
208	0xbca17266	-0.01970787
209	0xbc912303	-0.01771689
210	0x3c29b68e	0.010358466
211	0xbd22e993	-0.039773535
212	0xbcc0cb57	-0.02353446
213	0x3d2af9bc	0.04174207
214	0x3d37d4e1	0.04488075
215	0xba37f3d6	-0.00070172304
216	0xbccc4701	-0.024936201
217	0xbd0d489d	-0.034493078
218	0xbca41ee9	-0.02003427
219	0x3c2c2343	0.010506454
220	0xbbf7c197	-0.0075609195
221	0xbc09ad65	-0.008403157
222	0xba5fdb4f	-0.00085394544
223	0x3c20857f	0.009797453
224	0x3bea7d99	0.0071560857
225	0xbcba1a46	-0.022717606
226	0xbd1d69cc	-0.038430974
227	0xbcb3d0f6	-0.021950226
228	0xbd0db96d	-0.034600664
229	0xbcd22b0d	-0.025655294
230	0xbc701744	-0.014653984
231	0xbc94fba8	-0.018186405
232	0x3c3aacb7	0.0113937175
233	0xbcf0e68c	-0.029406808
234	0xbc70fbc5	-0.014708464
235	0xbc443a26	-0.011976754
236	0xbcb67c21	-0.022275986
237	0xbcd6062d	-0.026125992
238	0x3ae8f815	0.001777413
239	0xbcbf5d10	-0.023359805
240	0xbd737cd0	-0.059445202
241	0xbd2d2f25	-0.04228129
242	0xbc2239d6	-0.0099014845
243	0x3ac93d04	0.0015353267
244	0x3cd948bb	0.026523938
245	0x3bc516c8	0.0060146786
246	0x3ad92951	0.0016568099
247	0x3cc2a597	0.0237606
248	0x3cc34544	0.02383674
249	0xbbffb7f3	-0.007803911
250	0xbbed38dc	-0.007239444
251	0x3bc9b416	0.006155501
252	0x3a190784	0.0005837607
253	0x3c94b36c	0.018151961
254	0xbc9ff349	-0.019525187
255	0x3c12a8b8	0.0089513585

onnx::Conv_93 f4 [64]
0	0x3f10aa88	0.5651021
1	0xbd6e0960	-0.05811441
2	0xbd743562	-0.059621222
3	0x3e53747c	0.20649904
4	0xbd93edb6	-0.07223074
5	0x3e526562	0.20546487
6	0xbe4769ea	-0.19473997
7	0xbe41094b	-0.18851201
8	0x3d3c3357	0.0459474
9	0x3e5196f4	0.2046774
10	0xbd22714a	-0.039658822
11	0xbef450d5	-0.4771792
12	0x3e242fcc	0.16033858
13	0xbe93d9ac	-0.28877008
14	0x3de788bf	0.11305379
15	0xbd2670eb	-0.04063503
16	0xbdec5bda	-0.11540957
17	0xbe5c8d6a	-0.2153832
18	0x3de61904	0.1123524
19	0x3e603853	0.21896486
20	0x3e4b6ad2	0.19864967
21	0xbdaa4dcd	-0.083156206
22	0xbdc0e234	-0.09418145
23	0xbe95dc95	-0.29269853
24	0xbde10a9e	-0.10988353
25	0xbe18e947	-0.14932738
26	0xbe092fcd	-0.13397141
27	0x3d82b7e1	0.06382728
28	0x3ddf3145	0.10898069
29	0x3d275730	0.040854633
30	0x3db43c76	0.088005945
31	0x3d6ddee4	0.058073893
32	0xbd460e48	-0.048353463
33	0x3f14ad34	0.58076787
34	0xbdd2de62	-0.102963224
35	0xbdb9bfd1	-0.09069789
36	0xbc1db020	-0.009624511
37	0xbe751fca	-0.23937908
38	0x3efa0e91	0.48839238
39	0x3e410595	0.18849786
40	0x3d9864bd	0.07441089
41	0xbe11c0c1	-0.14233686
42	0xbc39fabe	-0.0113512855
43	0x3cd0f09e	0.02550536
44	0x3e20fcdd	0.1572146
45	0x3e120144	0.14258295
46	0xbe25826c	-0.16163033
47	0xbe91ff0f	-0.28514907
48	0x3dd596b2	0.104291335
49	0x3d8d01ea	0.06885131
50	0xbed9f6a3	-0.4257098
51	0x3dac7668	0.08421022
52	0x3de7cd23	0.113184236
53	0x3f0bca67	0.54605716
54	0xbcd7679c	-0.026294522
55	0xbf059e26	-0.5219444
56	0xbe396141	-0.18103506
57	0xbe9225ae	-0.28544372
58	0xbe736fc2	-0.23773101
59	0xbe0e903d	-0.1392221
60	0x3e2e8cac	0.1704585
61	0x3cec2032	0.028823946
62	0xbe0622d8	-0.1309923
63	0xbd81bf43	-0.063353084
